model/AE/decoder_fashion_mnist_32.pth (torch, 493243 bytes, 7 tensors)

linear.weight f4 [3136, 32]
0.07176974 -0.028261002 -0.021632351 0.31005538 -0.03800749 0.028012084 0.15230662 -0.3014516
-0.34248847 -0.2644816 -0.082415745 0.16540575 -0.073595576 0.2881183 -0.3057285 -0.04717458
-0.050060414 0.006052574 0.055267595 -0.49976853 -0.14421265 -0.2365286 0.17867367 0.14467786
-0.20853727 -0.124328494 0.072804004 -0.2538618 0.025511151 -0.019911708 0.1423946 0.29306573
-0.023510052 0.030878138 -0.11425945 0.069149695 -0.11437111 0.13590564 -0.061444435 0.031494614
0.076403186 0.060041983 0.10457421 0.21406595 -0.061083116 -0.22935319 -0.028610766 -0.15651114
0.04736637 0.009970087 -0.1421049 0.015878718 0.3162743 -0.076199934 -0.07836984 0.02194555
0.06912204 -0.12306977 0.29710865 0.06610059 0.024181051 0.014013484 -0.077112004 0.1009465
0.1410399 0.028350135 0.119181916 0.06486716 0.13612615 0.112534605 0.17822999 -0.018863868
0.14061914 0.09356692 -0.010646706 -0.08538621 0.04268394 -0.095224254 0.18972999 0.12952757
-0.23020197 -0.0005033769 0.14441867 -0.052123096 -0.18609537 0.16936155 -0.13024007 0.08488924
-0.07104923 0.09939126 0.036243588 0.12196433 -0.17853947 -0.017554615 0.020366522 0.018055208
0.024721326 0.17952166 0.23052353 -0.21511282 -0.01958185 0.12649201 -0.11316431 -0.024448475
0.11150539 0.008207695 -0.035048265 -0.07554091 0.0017667072 -0.07156448 0.21179278 0.17303018
-0.16379093 0.049754485 -0.017292896 0.07789403 0.13743135 0.16861342 0.19561936 0.006516436
-0.20605785 0.1389168 0.016639106 -0.0007343104 0.101792954 -0.17089136 -0.040575135 -0.09897814
-0.023133658 0.021777274 -0.118033096 0.12552278 0.029918926 -0.107496135 -0.06043712 -0.013989103
-0.0978223 -0.063551575 0.11966104 0.06233067 0.03018696 0.0008251886 -0.12830196 -0.10240203
0.17772274 -0.017043939 0.11694666 -0.16996646 0.26142797 -0.01698279 0.0121728275 -0.195745
0.2516504 0.23977707 -0.245291 -0.0982168 0.1162755 -0.05462073 0.0838438 0.01169052
-0.16888945 -0.07730613 0.06796639 0.026621342 0.011954913 0.039101437 0.18809883 0.07726912
-0.034992598 -0.10085589 -0.17193274 0.15925796 0.17074183 -0.19849554 0.09904967 0.23080051
-0.045941252 -0.13468498 -0.106447585 -0.06349383 -0.004716427 0.20520002 -0.16999488 0.18266319
0.19889759 0.113955565 -0.11685745 0.034642186 0.1454894 -0.03917363 -0.09830884 -0.06981212
0.16493177 -0.004659668 -0.04384101 -0.15359904 0.1354745 -0.035713993 -0.26001737 -0.053261057
-0.11396394 -0.16466813 -0.034987137 0.06653699 -0.04290226 0.22737499 -0.13060853 -0.04937008
0.1568091 -0.27514136 0.07095219 -0.2590545 -0.14217813 -0.14642243 -0.0028987336 -0.023458067
-0.28192306 -0.2570345 -0.12855415 0.10869406 0.002191882 0.10141756 -0.032592583 0.23849988
-0.109745346 -0.059442893 0.18144403 0.09611743 0.038467597 -0.033086587 -0.13476552 -0.023984829
0.12745024 0.11200924 0.037190653 0.1049634 -0.048599448 -0.040102787 -0.16078332 -0.004236578
-0.063910075 -0.07380517 -0.06771583 0.18998061 -0.0427885 -0.14127053 0.05034978 0.100040846
-0.0100947665 0.14746588 -0.008613167 -0.08380535 0.019994788 -0.14677554 -0.19040948 -0.117466435
00000000: 03fc 923d 9e83 e7bc 5436 b1bc 94bf 9e3e
00000010: bead 1bbd 9979 e53c 44f6 1b3e dd57 9abe
00000020: a65a afbe 226a 87be 96c9 a8bd 2060 293e
00000030: 47b9 96bd 3e84 933e 7288 9cbe 223a 41bd
00000040: 260c 4dbd ac54 c63b 4660 623d a9e1 ffbe
00000050: 7bac 13be 8e34 72be 3bf6 363e 6f26 143e
00000060: cb8a 55be f09f febd 441a 953d 2dfa 81be
00000070: c3fc d03c e11d a3bc e4cf 113e b60c 963e
00000080: 2798 c0bc 26f4 fc3c dc00 eabd 5b9e 8d3d
00000090: 673b eabd d92a 0b3e 29ad 7bbd 7f00 013d
000000a0: 4679 9c3d 95ee 753d 012b d63d 1b34 5b3e
000000b0: 4a32 7abd 90db 6abe 2061 eabc 7544 20be
000000c0: 3d03 423d 9359 233c f283 11be 1614 823c
000000d0: b4ee a13e b60e 9cbd 5e80 a0bd 27c7 b33c
000000e0: db8f 8d3d 010c fcbd a01e 983e bf5f 873d
000000f0: 5717 c63c d098 653c e6ec 9dbd 0abd ce3d
00000100: c36c 103e 8b3e e83c a615 f43d 13d9 843d
00000110: a764 0b3e 8b78 e63d ec81 363e 6688 9abc
00000120: 77fe 0f3e 03a0 bf3d 866f 2ebc f7de aebd
00000130: 5bd5 2e3d ef04 c3bd 9448 423e e0a2 043e
00000140: 11ba 6bbe 0df5 03ba 7de2 133e 077f 55bd
00000150: c98f 3ebe 1d6d 2d3e a75d 05be 69da ad3d
00000160: 4282 91bd a58d cb3d 2874 143d 6fc8 f93d
00000170: 0dd3 36be b2ce 8fbc b1d7 a63c 84e8 933c
00000180: 6184 ca3c 87d4 373e 5c0e 6c3e 8946 5cbe
00000190: 1e6a a0bc 1f87 013e b1c2 e7bd 2b48 c8bc
000001a0: f05c e43d 9179 063c c58e 0fbd 31b5 9abd
000001b0: db90 e73a 6690 92bd 35e0 583e d32e 313e
000001c0: cfb8 27be 5ccb 4b3d d5a9 8dbc e886 9f3d
000001d0: ceba 0c3e ffa8 2c3e 7150 483e d487 d53b
000001e0: d400 53be 3540 0e3e bc4e 883c bd7e 40ba
000001f0: d378 d03d 25fe 2ebe 1d32 26bd 0db5 cabd
00000200: cc82 bdbc 4166 b23c 56bb f1bd 0b89 003e
00000210: 8918 f53c ef26 dcbd ea8c 77bd 8d32 65bc
00000220: 0f57 c8bd 5427 82bd d910 f53d 724e 7f3d
00000230: a54a f73c 7851 583a 9761 03be 28b8 d1bd
00000240: f3fc 353e bb9f 8bbc bb81 ef3d b00b 2ebe
00000250: e3d9 853e 7e1f 8bbc 8a70 473c 6171 48be
00000260: 52d8 803e 1f88 753e 902d 7bbe e425 c9bd
00000270: d921 ee3d fdb9 5fbd 4cb6 ab3d 9889 3f3c
00000280: 5bf1 2cbe ad52 9ebd f631 8b3d 0015 da3c
00000290: 8ade 433c d428 203d fb9c 403e 463f 9e3d
000002a0: 6654 0fbd 888d cebd 230f 30be 8514 233e
000002b0: f2d6 2e3e 6a42 4bbe 8eda ca3d f856 6c3e
000002c0: e52c 3cbd dcea 09be 3101 dabd 0e09 82bd
000002d0: 428c 9abb f41f 523e 2313 2ebe 0f0c 3b3e
000002e0: cfab 4b3e 8961 e93d f552 efbd f7e4 0d3d
000002f0: 2cfb 143e 8774 20bd 2556 c9bd a8f9 8ebd
00000300: e0e3 283e 21b0 98bb a292 33bd 1149 1dbe
00000310: d4b9 0a3e d648 12bd ff20 85be 4428 5abd
00000320: ed65 e9bd c39e 28be ac4e 0fbd 8c44 883d
00000330: 48ba 2fbd fdd4 683e 3ebe 05be 4838 4abd
00000340: 9192 203e 54df 8cbe 624f 913d cba2 84be
00000350: 2597 11be c3ef 15be aef8 3dbb 222b c0bc
00000360: 3858 90be 079a 83be b3a3 03be fe9a de3d
00000370: aea5 0f3b 02b4 cf3d cd7f 05bd 5039 743e
00000380: 2bc2 e0bd 647a 73bd 77cc 393e 37d9 c43d
00000390: 3390 1d3d cd85 07bd f9ff 09be d57b c4bc
000003a0: 5182 023e 1a65 e53d 3a55 183d 0df7 d63d
000003b0: 3710 47bd d242 24bd 62a4 24be fed2 8abb
000003c0: 49e3 82bd 2a27 97bd 99ae 8abd 478a 423e
000003d0: ff42 2fbd 39a9 10be 923b 4e3d 37e2 cc3d
000003e0: 8564 25bc 4c01 173e 3e1e 0dbc 24a2 abbd
000003f0: 1ccc a33c 544c 16be b4fa 42be 3e92 f0bd

linear.bias f4 [3136]
0.15712413 0.1489925 0.07706468 -0.017352704 -0.12371578 0.15734114 0.008868106 0.04077312
0.075754516 -0.07558252 -0.10393982 -0.1110017 0.11760249 -0.07981598 -0.04142657 0.06647409
-0.19426325 -0.011860866 -0.040924124 0.039948888 -0.054684 -0.025975104 0.004081925 0.123384446
-0.1745932 0.14413066 0.1232307 0.032529525 -0.044669338 0.007751576 -0.13895872 0.11311141
0.109122284 -0.07751298 0.08895355 -0.183929 -0.12271565 0.07008468 -0.17004561 -0.040423114
-0.06787238 0.057270356 0.14797105 0.020730287 0.15514879 0.19043282 0.02039599 0.11196496
0.22127345 -0.06691661 -0.22737502 0.0077815056 0.023288053 -0.0013810145 0.15677536 0.16548374
-0.24875836 -0.03592113 -0.059122007 -0.15898006 -0.010142729 0.14437681 -0.045832902 0.08277109
-0.011932269 -0.12667564 -0.122915536 -0.06400922 0.046175323 -0.04333693 -0.11468664 -0.09402952
0.088367514 -0.043308023 -0.0999271 -0.10612755 -0.16128266 0.056820363 -0.10319574 -0.10194984
0.107637554 -0.034548886 -0.1953003 -0.057965536 0.120194726 -0.15022288 -0.290452 0.060249075
0.08343002 0.10870067 0.23243694 0.101538114 0.19555464 -0.086206906 -0.08687071 0.102838814
0.29131994 0.22880045 0.11033938 -0.10118713 -0.010265932 -0.006075091 -0.1130544 0.25201696
-0.04277043 -0.16485387 0.04172965 0.11115838 0.23338026 -0.22358617 0.0301616 -0.23006831
-0.11785389 0.00948142 -0.1706803 -0.018889295 -0.07377915 0.08765483 -0.308035 0.14081644
-0.035259195 0.05579592 -0.097085334 -0.08119568 -0.2205186 -0.1883261 0.063998334 0.0873645
-0.07135866 -0.1543131 0.0051463195 -0.11111406 -0.29131204 0.14317168 -0.08727646 0.074598715
0.0082377065 -0.17903252 0.030172102 -0.16099325 0.2291087 -0.13702449 0.049288157 -0.18591256
-0.07200265 -0.07795378 -0.053145107 0.29607463 0.009484201 -0.028571023 -0.015823657 0.13558231
0.24660808 -0.114962384 0.09303374 0.12138572 -0.013029918 -0.1875155 0.1063579 -0.24654153
0.13967946 0.15180433 -0.07343729 -0.19802895 -0.113327466 -0.092876345 -0.057611223 0.11482587
0.23745105 0.026432626 0.070564345 -0.17653441 -0.1635285 0.13594948 -0.12718302 0.021471836
0.08107057 -0.1313019 -0.12616499 0.10303462 0.052698467 0.22191402 -0.16510366 -0.15783364
-0.09507099 -0.028550088 -0.07335919 0.023946341 0.09428347 0.14429167 -0.082322784 -0.05966999
-0.06197384 -0.08494309 -0.18167251 -0.04188646 0.21234538 0.006540014 -0.06695457 0.14545338
0.1619129 -0.089263655 0.200369 -0.1345352 -0.14972521 0.072567336 0.090424456 0.10107165
0.13228755 0.01813654 -0.044149686 0.06339429 0.069480084 0.15193373 0.0805111 -0.18543322
0.10750329 0.17913117 -0.112137385 -0.117123574 0.09112316 0.0438926 0.17434543 0.1627373
0.21250486 0.05507794 -0.16272709 0.14754401 -0.082533084 -0.053828917 -0.11980383 -0.004628518
-0.16157396 -0.027951995 -0.15627068 -0.010133642 -0.2249656 -0.045490567 -0.05037174 0.059837807
0.17061345 0.20105022 0.046279326 -0.11249247 0.07893826 0.07871997 0.22303116 0.07959177
0.17608511 -0.10984649 0.07152717 -0.014463238 -0.02661353 0.10293605 0.10012441 -0.21551839
00000000: 26e5 203e 7d91 183e 16d4 9d3d 4227 8ebc
00000010: b35e fdbd 091e 213e 884b 113c b701 273d
00000020: 2f25 9b3d 02cb 9abd 66de d4bd dc54 e3bd
00000030: 93d9 f03d 8f76 a3bd e8ae 29bd 9123 883d
00000040: f2ec 46be 1454 42bc 0ea0 27bd 72a1 233d
00000050: 54fc 5fbd bec9 d4bc abc1 853b fcb0 fc3d
00000060: 8fc8 32be fd96 133e 6160 fc3d ae3d 053d
00000070: 32f7 36bd ef00 fe3b 324b 0ebe f4a6 e73d
00000080: 817b df3d 20bf 9ebd 472d b63d e257 3cbe
00000090: 5852 fbbd 8f88 8f3d 7020 2ebe b592 25bd
000000a0: ad00 8bbd 5294 6a3d b985 173e 90d2 a93c
000000b0: 53df 1e3e d200 433e 7e15 a73c e34d e53d
000000c0: 8295 623e 930b 89bd ffd4 68be 00fc fe3b
000000d0: 96c6 be3c 2803 b5ba b889 203e 9274 293e
000000e0: 83ba 7ebe 0922 13bd eb29 72bd abcb 22be
000000f0: b02d 26bc 84d7 133e 48bb 3bbd e483 a93d
00000100: 907f 43bc 42b7 01be 24bb fbbd 4417 83bd
00000110: 5622 3d3d 1182 31bd d4e0 eabd 8d92 c0bd
00000120: 07fa b43d c163 31bd 94a6 ccbd 6759 d9bd
00000130: 4827 25be 78bc 683d 4a58 d3bd 14cb d0bd
00000140: 1471 dc3d 2283 0dbd cdfc 47be 456d 6dbd
00000150: a728 f63d 07d4 19be 20b6 94be bcc7 763d
00000160: 5cdd aa3d 759e de3d f303 6e3e 37f3 cf3d
00000170: 7a3f 483e 3f8d b0bd 45e9 b1bd 289d d23d
00000180: e327 953e aa4a 6a3e 9df9 e13d 333b cfbd
00000190: 7132 28bc 8f11 c7bb 1189 e7bd 5e08 813e
000001a0: 0c30 2fbd 74cf 28be b6ec 2a3d 01a7 e33d
000001b0: 3cfb 6e3e c6f3 64be 7615 f73c 0797 6bbe
000001c0: 615d f1bd f557 1b3c d1c6 2ebe b9bd 9abc
000001d0: 8619 97bd 6084 b33d c3b6 9dbe 2f32 103e
000001e0: f26b 10bd 438a 643d add4 c6bd ec49 a6bd
000001f0: a1cf 61be 8fd8 40be 8f11 833d 29ec b23d
00000200: 7d24 92bd 4104 1ebe 75a2 a83b c58f e3bd
00000210: da26 95be 999b 123e 00be b2bd 36c7 983d
00000220: 72f7 063c 4d54 37be 7c2b f73c 6adb 24be
00000230: 799b 6a3e 2650 0cbe 61e2 493d dd5f 3ebe
00000240: 2076 93bd 3ba6 9fbd afae 59bd 1897 973e
00000250: 9f63 1b3c c70d eabc 9da0 81bc 17d6 0a3e
00000260: d486 7c3e 6671 ebbd 7988 be3d 1499 f83d
00000270: 707b 55bc 1004 40be 2cd2 d93d 6275 7cbe
00000280: 2208 0f3e 9872 1b3e 4a66 96bd 1ac8 4abe
00000290: 3b18 e8bd f435 bebd bff9 6bbd d329 eb3d
000002a0: 5e26 733e 3c89 d83c 0a84 903d 70c5 34be
000002b0: 0474 27be 5736 0b3e 443c 02be b4e5 af3c
000002c0: 5408 a63d 0174 06be 6531 01be d103 d33d
000002d0: 59da 573d 6e3d 633e ef10 29be 249f 21be
000002e0: 94b4 c2bd e0e1 e9bc 583d 96bd 1e2b c43c
000002f0: b117 c13d 32c1 133e d998 a8bd 8568 74bd
00000300: 48d8 7dbd a5f6 adbd 5c08 3abe 2391 2bbd
00000310: 1171 593e 9d4d d63b 7a1f 89bd bbf1 143e
00000320: 7fcc 253e ddcf b6bd 882d 4d3e 98c3 09be
00000330: 9151 19be 2f9e 943d 7530 b93d a7fe ce3d
00000340: 6376 073e 1593 943c 4dd6 34bd ded4 813d
00000350: 934b 8e3d 8494 1b3e 01e3 a43d 35e2 3dbe
00000360: af2a dc3d 296e 373e 49a8 e5bd 7cde efbd
00000370: c89e ba3d bac8 333d 9c87 323e 9ba4 263e
00000380: e09a 593e 6899 613d eea1 26be c715 173e
00000390: 1b07 a9bd b67b 5cbd b65b f5bd d3aa 97bb
000003a0: a573 25be 95fb e4bc 6c05 20be 9307 26bc
000003b0: 625d 66be 5154 3abd 9952 4ebd 7d18 753d
000003c0: 4bb5 2e3e 1ce0 4d3e 648f 3d3d 7462 e6bd
000003d0: 62aa a13d f037 a13d 4862 643e 0301 a33d
000003e0: a84f 343e 32f7 e0bd d67c 923d 38f7 6cbc
000003f0: 9e04 dabc 23d0 d23d 070e cd3d dab0 5cbe

deconv1.weight f4 [32, 64, 3, 3]
0.03856172 -0.06332615 0.065394446 0.010116922 0.07687198 -0.013148333 0.005823286 0.0935958
-0.009329384 -0.05056748 0.06219575 -0.036682118 0.008395657 0.04902349 -0.039900843 -0.12809888
-0.013122543 -0.09803019 -0.052193608 -0.099054664 -0.08412706 0.012181128 -0.056754723 -0.0707869
0.050339222 0.0804734 0.021715118 -0.0028866415 -0.033959646 -0.02367904 -0.029272102 0.04545064
-0.008539618 -0.052045945 0.064906605 0.041641984 -0.047413386 0.042782515 0.04151735 0.03800005
0.06839664 0.080538176 -0.07209172 0.035689425 0.024729604 0.007844408 0.13158077 0.04415928
-0.036118418 0.04560998 0.061178714 -0.07516152 -0.11918746 0.050470173 0.05310409 -0.023230491
-0.04252228 -0.007317856 -0.11854942 0.016679578 0.01239647 0.034016706 0.07999949 -0.024843924
-0.05651011 0.013230983 0.015518953 0.033847537 -0.017567944 -0.089662544 -0.009931347 -0.1062932
0.013834103 0.09649396 -0.058928415 0.016417503 0.06697252 0.08245817 -0.036421068 -0.0075603956
0.035907764 0.01063264 0.020305367 0.00074886053 -0.006810014 -0.07018675 -0.10296884 0.022079406
-0.024548259 -0.13040331 0.010756895 -0.07181577 0.054412156 0.03985213 -0.14031844 -0.00045764347
0.04145323 -0.09624917 0.021719044 -0.016885119 -0.042529307 -0.044757742 0.04675451 0.047033634
-0.013001706 0.041574076 -0.006590762 -0.0046973885 0.014763693 -0.039728973 0.032061547 -0.0851471
0.028353522 0.0041337307 -0.09541071 -0.016653312 -0.014339274 0.06743025 0.116935365 0.032259583
0.04195661 0.0959489 0.030141152 0.023965903 0.026778817 0.013756272 -0.06922414 0.05538248
-0.02178698 0.024265831 0.04352157 0.01353877 0.05951999 0.014849389 0.015038762 0.009830684
0.0006347254 -0.018362042 -0.03823941 0.035445284 0.050375268 0.06204922 0.034117676 0.11396306
-0.023839729 -0.014546204 -0.021568732 0.0070759696 0.054595526 0.017240467 -0.10782243 0.039704382
-0.048514597 0.06172852 -0.015429973 -0.043583967 0.022711672 -0.0214835 -0.04454789 0.028738355
-0.05207276 -0.004824667 0.0044744755 0.1004025 0.059615005 -0.018266946 0.059955735 -0.036438823
-0.0435474 0.057817683 -0.07198049 -0.0047022784 0.12496601 0.09053777 0.026361289 0.14027102
0.0948463 -0.027126685 -0.050151132 -0.026886929 -0.028003192 -0.00051100436 0.04635039 0.017553937
-0.098524675 -0.051932294 -0.009160632 -0.16029489 -0.0037925423 -0.060915135 -0.025379559 -0.10853021
-0.03344144 -0.06678041 0.04551658 -0.052640766 -0.081068896 0.029379806 -0.0073550916 -0.039820086
0.015221799 0.012637048 -0.066711925 -0.016277885 -0.025140053 -0.006309757 0.029153086 -0.04168466
0.06386208 -0.017848073 -0.0154459765 0.012728852 0.034232244 -0.028615078 -0.0003663977 0.030339263
-0.048602756 0.062978715 -0.08338916 0.0034574056 0.08253877 -0.091182575 0.0057191276 0.06706409
-0.07235093 -0.05748911 0.068190195 -0.012504872 -0.06930648 0.002555082 -0.05817223 -0.09923363
-0.12817276 -0.1296999 -0.025273329 -0.056537647 -0.02748155 -0.010428612 -0.007316719 -0.0037195093
0.058027904 0.111226164 0.06941531 0.048091244 0.09245893 -0.011862591 -0.0042418507 0.06318753
-0.067491874 0.13716194 0.04954543 0.0699152 0.074411966 0.04423806 0.0050629843 -0.06846657
00000000: e5f2 1d3d 24b1 81bd 86ed 853d 72c1 253c
00000010: 0f6f 9d3d 1b6c 57bc 43d1 be3b 28af bf3d
00000020: 46da 18bc d91f 4fbd f9c0 7e3d fd3f 16bd
00000030: f08d 093c dbcc 483d 116f 23bd 5a2c 03be
00000040: efff 56bc 0dc4 c8bd f7c8 55bd 2cdd cabd
00000050: cf4a acbd 5b93 473c a477 68bd b9f8 90bd
00000060: 8030 4e3d 3dcf a43d e7e3 b13c cf2d 3dbb
00000070: 4519 0bbd 8cfa c1bc 0ccc efbc 732a 3a3d
00000080: c1e9 0bbc 212e 55bd c1ed 843d c990 2a3d
00000090: 8a34 42bd b83c 2f3d 190e 2a3d f1a5 1b3d
000000a0: 8a13 8c3d 33f1 a43d d3a4 93bd 132f 123d
000000b0: bd95 ca3c d585 003c 1cbd 063e 5ce0 343d
000000c0: e8f0 13bd 88d1 3a3d 8896 7a3d 48ee 99bd
000000d0: 8e18 f4bd d0b9 4e3d ad83 593d df4d bebc
000000e0: d82b 2ebd a0ca efbb 0aca f2bd 9ca3 883c
000000f0: 901a 4b3c 1a55 0b3d c6d6 a33d 7c85 cbbc
00000100: 2577 67bd c4c6 583c 3543 7e3c b7a3 0a3d
00000110: a6ea 8fbc ffa0 b7bd 17b7 22bc 40b0 d9bd
00000120: 6fa8 623c a09e c53d ec5e 71bd 007e 863c
00000130: e328 893d d4df a83d 422e 15bd 32bd f7bb
00000140: 0514 133d 8634 2e3c 7157 a63c 2e4f 443a
00000150: 8a26 dfbb 12be 8fbd 54e1 d2bd dfdf b43c
00000160: 6e19 c9bc 7288 05be b03d 303c 2514 93bd
00000170: 48df 5e3d fd3b 233d a3af 0fbe deef efb9
00000180: ddca 293d 491e c5bd 23ec b13c a952 8abc
00000190: 3633 2ebd e553 37bd a881 3f3d 57a6 403d
000001a0: 1c05 55bc 9449 2a3d 52f7 d7bb 8dec 99bb
000001b0: 6be3 713c d9ba 22bd f852 033d 9a61 aebd
000001c0: a545 e83c 3f74 873b b166 c3bd 876c 88bc
000001d0: 46ef 6abc df18 8a3d cf7b ef3d a022 043d
000001e0: b2da 2b3d db80 c43d 94ea f63c 2454 c43c
000001f0: 405f db3c fd61 613c 63c5 8dbd bdd8 623d
00000200: 9c7a b2bc 23c9 c63c ac43 323d b8d1 5d3c
00000210: 3ccb 733d da4a 733c 2465 763c e110 213c
00000220: b363 263a fe6b 96bc eda0 1cbd 132f 113d
00000230: 4c56 4e3d 5327 7e3d fabe 0b3d 7765 e93d
00000240: 894b c3bc 3453 6ebc e9b0 b0bc 89dd e73b
00000250: 8f9f 5f3d e13b 8d3c 02d2 dcbd 10a1 223d
00000260: 3eb7 46bd 0bd7 7c3d ffcd 7cbc 1a85 32bd
00000270: d40d ba3c 2afe afbc d977 36bd b36c eb3c
00000280: 3f4a 55bd 3d18 9ebb 9f9e 923b d39f cd3d
00000290: dd2e 743d 90a4 95bc 2594 753d e040 15bd
000002a0: c25e 32bd 3cd2 6c3d 826a 93bd 9215 9abb
000002b0: 2eee ff3d de6b b93d a1f3 d73c 35a3 0f3e
000002c0: c73e c23d c838 debc 466b 4dbd fa41 dcbc
000002d0: f366 e5bc ecf4 05ba e8d9 3d3d 46cd 8f3c
000002e0: 4ec7 c9bd f5b6 54bd 7a16 16bc 5824 24be
000002f0: 4d8c 78bb 2682 79bd cbe8 cfbc 1645 debd
00000300: e4f9 08bd 2bc4 88bd 986f 3a3d d89d 57bd
00000310: 7307 a6bd ebad f03c fb02 f1bb 631a 23bd
00000320: da64 793c 9f0b 4f3c 43a0 88bd 3359 85bc
00000330: 83f2 cdbc 14c2 cebb 74d2 ee3c 89bd 2abd
00000340: 1fca 823d 1f36 92bc 1f11 7dbc ad8c 503c
00000350: 1c37 0c3d 2b6a eabc 1119 c0b9 0c8a f83c
00000360: af13 47bd fcfa 803d f0c7 aabd a495 623b
00000370: 160a a93d eebd babd 8567 bb3b e658 893d
00000380: b92c 94bd b379 6bbd 4da7 8b3d 3ce1 4cbc
00000390: 8ef0 8dbd 2a73 273b 0146 6ebd 003b cbbd
000003a0: b83f 03be 0dd0 04be 030a cfbc 0594 67bd
000003b0: fd20 e1bc c5dc 2abc 16c1 efbb 03c3 73bb
000003c0: abae 6d3d 8bca e33d 9d29 8e3d 53fb 443d
000003d0: 1c5b bd3d 505b 42bc 39ff 8abb 7768 813d
000003e0: 2e39 8abd 2e74 0c3e 26f0 4a3d b32f 8f3d
000003f0: 4d65 983d f832 353d 64e7 a53b 3338 8cbd

deconv1.bias f4 [32]
-0.033219866 0.0009599499 -0.0072630434 -0.01766551 -0.005360254 -0.035105214 -0.0194178 -0.0025139404
-0.0383319 -0.03534952 -0.010909375 -0.024164913 -0.0385734 -0.012967219 -0.0064894226 0.041438587
-0.02852362 0.007509691 -0.034893207 -0.027306749 0.01796898 -0.016661348 0.03029869 -0.009417307
0.008919145 -0.0032641871 -0.010494515 -0.0021842394 -0.033183474 -0.03245723 -0.015164126 -0.027649859
00000000: 8e11 08bd 26a5 7b3a d3fe edbb 42b7 90bc
00000010: 12a5 afbb 7cca 0fbd 1412 9fbc ecc0 24bb
00000020: e901 1dbd a9ca 10bd 3cbd 32bc 7ff5 c5bc
00000030: 24ff 1dbd 7574 54bc 39a5 d4bb 82bb 293d
00000040: 5eaa e9bc db13 f63b 2eec 0ebd 67b2 dfbc
00000050: af33 933c 617d 88bc f534 f83c 0c4b 1abc
00000060: 9b21 123c f9eb 55bb 30f1 2bbc 7525 0fbb
00000070: 65eb 07bd dff1 04bd f472 78bc f581 e2bc

gn1.weight f4 [32]
1.3902609 1.7856085 1.3351448 1.7877892 1.2608132 2.086047 1.3360299 1.2096709
1.2107867 1.2210145 1.5250872 1.6492188 1.3314255 1.2707947 1.2770576 1.6764637
1.2559167 1.6504228 1.1843164 1.2791357 1.3560642 1.3091338 1.3194288 1.697116
1.3110859 1.5690894 1.174644 1.2630943 1.195294 1.3111162 1.2471278 1.4354166
00000000: 12f4 b13f d28e e43f 06e6 aa3f 47d6 e43f
00000010: 5462 a13f cb81 0540 0703 ab3f 7fd6 9a3f
00000020: 0ffb 9a3f 344a 9c3f 0f36 c33f 9a19 d33f
00000030: 276c aa3f 67a9 a23f a076 a33f 5d96 d63f
00000040: e1c1 a03f 0e41 d33f ae97 973f b8ba a33f
00000050: 8393 ad3f b291 a73f 0be3 a83f 193b d93f
00000060: aad1 a73f ecd7 c83f bc5a 963f 13ad a13f
00000070: 65ff 983f a8d2 a73f e2a1 9f3f bbbb b73f

gn1.bias f4 [32]
0.018159047 -0.020026634 -0.037641313 -0.060043175 -0.0013881766 -0.049851347 -0.010555508 -0.02728462
-0.030535266 0.009798875 -0.043642145 -0.016612006 0.03169091 0.12171074 0.0095967995 -0.1151442
0.019931879 0.048527393 0.099877335 -0.1118282 0.09769812 0.0026936086 0.05473564 -0.027084077
-0.0029401777 -0.12743144 -0.029912313 0.0028173784 -0.014776918 -0.009632369 0.11900622 0.0039635985
00000000: 48c2 943c e50e a4bc c72d 1abd d5ef 75bd
00000010: 7af3 b5ba ed30 4cbd 02f1 2cbc ff83 dfbc
00000020: 1825 fabc 768b 203c 1bc2 32bd e715 88bc
00000030: 54ce 013d 7b43 f93d e53b 1d3c b9d0 ebbd
00000040: 2e48 a33c a9c4 463d 7d8c cc3d 2f06 e5bd
00000050: f415 c83d 4187 303b 7a32 603d 6ddf ddbc
00000060: ffaf 40bb 637d 02be ab0a f5bc c4a3 383b
00000070: e31a 72bc 15d1 1dbc 88b9 f33d 13e1 813b

deconv2.weight f4 [1, 32, 3, 3]
0.043803085 -0.056025393 -0.0403642 0.046328284 -0.27934238 -0.22236283 0.047141224 -0.18597633
-0.22317423 -0.24085937 0.24191795 0.13008422 -0.4821142 0.06860152 0.20793526 -0.4303127
0.023824275 0.1329313 -0.2016962 -0.1740926 -0.34907115 -0.16462925 -0.22072916 -0.28210068
-0.21139638 -0.007838135 -0.12366543 0.09652098 0.24140023 -0.39935872 0.22036217 0.12195673
-0.45563242 0.17201683 0.09050673 -0.27002302 0.028797124 -0.12367183 -0.07076358 -0.08619319
-0.2428227 -0.139627 -0.061280765 -0.22503315 -0.13751222 0.041894015 -0.3393407 0.27003258
0.11358293 -0.43428954 0.29623792 0.21509643 -0.299108 0.28269354 -0.08917322 -0.16614486
-0.18122081 -0.064645536 -0.18395172 -0.11802216 0.0049532624 -0.09251647 -0.008562457 -0.060966298
-0.088036776 -0.05951194 -0.1058294 -0.20157748 -0.06914584 -0.10957331 -0.1676504 -0.04169071
0.03641691 -0.092379875 0.0060126698 -0.08549323 -0.16623332 -0.08418639 -0.09932952 -0.16548578
-0.08674125 -0.030888183 -0.13321391 -0.14023319 -0.113749996 -0.2396923 -0.15317664 -0.070037544
-0.15892637 -0.02424213 0.20912185 0.05137228 0.097922 -0.13162817 -0.27209204 -0.23838064
-0.18592224 -0.2454887 -0.16890633 0.17654632 -0.2657287 -0.058352362 0.17714106 -0.46354407
-0.060727034 0.14050657 -0.3656629 -0.05319801 -0.04190073 -0.13271354 0.0097971605 -0.14027245
-0.2340091 -0.09569553 -0.14482808 -0.2344901 -0.105597876 -0.0084437765 0.043084018 0.11464204
0.14375818 0.26063663 0.26056126 0.12972647 0.18224654 0.10273239 -0.00020063149 -0.1659508
-0.08179325 -0.04745775 -0.31890017 -0.15763369 -0.06947135 -0.18244448 0.03275888 -0.1686677
-0.25332063 -0.11592677 -0.29326963 -0.37845004 -0.20996772 0.22879429 0.2781486 0.26527438
-0.07308089 -0.10888102 -0.0073084906 -0.17173806 -0.20024085 -0.05802914 -0.18458785 -0.25411776
-0.021061754 -0.14814177 0.27228916 -0.06218068 -0.17130601 0.34335542 -0.05547442 -0.15914886
0.26717138 -0.08245777 -0.05335895 0.07122024 0.12706274 0.04901462 0.16304278 0.20327394
-0.04459315 0.119689316 0.1587388 0.066907145 0.05334786 0.011840593 -0.007431942 -0.030726463
-0.07827758 -0.19888602 -0.15155537 -0.18859655 -0.1563889 -0.059658922 -0.22489023 0.12942377
0.2118775 0.056129143 0.15038775 0.24630299 0.05323876 -0.09656548 -0.14965422 -0.024057435
-0.1237893 -0.19483368 -0.09065038 -0.08306778 -0.12493418 0.009680997 -0.017516548 -0.038764555
-0.15102212 0.26741597 0.28444538 0.19714054 0.0030372534 0.038984597 -0.124268904 0.13827597
0.23423678 -0.0072506694 0.27520785 0.0224392 -0.3357304 0.15706798 -0.22410654 -0.28624442
-0.13791884 -0.08930047 0.06903601 -0.20201287 -0.14100139 -0.067606494 -0.29278857 -0.07168685
-0.059865348 0.11347399 0.21163644 0.16726835 -0.007919015 0.010012623 0.05233889 -0.37180746
-0.22747421 -0.15357909 -0.06745456 -0.13877629 -0.09725005 -0.029767549 -0.1345174 -0.12291728
0.020724274 -0.10171533 -0.06643368 -0.123448595 -0.3299977 0.011269758 -0.18467762 -0.28470907
0.0039902506 -0.07722025 -0.12599592 0.06389387 -0.11401447 -0.12286748 0.03337045 -0.15365827
00000000: dd6a 333d e27a 65bd ee54 25bd bac2 3d3d
00000010: f705 8fbe 15b3 63be 2817 413d 9470 3ebe
00000020: c987 64be d7a3 76be 57b9 773e cc34 053e
00000030: acd7 f6be f47e 8c3d fbec 543e f251 dcbe
00000040: 202b c33c 251f 083e 7389 4ebe 5545 32be
00000050: 74b9 b2be 9294 28be d306 62be 806f 90be
00000060: 4b78 58be 856b 00bc 4d44 fdbd cbac c53d
00000070: 9f31 773e bf78 ccbe 9fa6 613e 73c4 f93d
00000080: a748 e9be 2e25 303e 985b b93d 7540 8abe
00000090: f2e7 eb3c a847 fdbd 7fec 90bd 0e86 b0bd
000000a0: 84a6 78be 61fa 0ebe 8a01 7bbd 176f 66be
000000b0: 01d0 0cbe 0f99 2b3d 10be adbe b641 8a3e
000000c0: 2b9e e83d 335b debe 7fac 973e 3d42 5c3e
000000d0: af24 99be 35bd 903e 73a0 b6bd e121 2abe
000000e0: f391 39be e164 84bd d75d 3cbe 9ab5 f1bd
000000f0: fa4e a23b 4679 bdbd 8c49 0cbc ccb7 79bd
00000100: a04c b4bd cbc2 73bd 16bd d8bd 546a 4ebe
00000110: 569c 8dbd f967 e0bd 8cac 2bbe e1c3 2abd
00000120: e629 153d a931 bdbd ee05 c53b 1317 afbd
00000130: 1139 2abe ea69 acbd 466d cbbd 1b75 29be
00000140: 65a5 b1bd 3709 fdbc 3a69 08be 4a99 0fbe
00000150: c2f5 e8bd e671 75be 56da 1cbe d86f 8fbd
00000160: 98bd 22be 6e97 c6bc 0a24 563e bd6b 523d
00000170: 548b c83d 89c9 06be a64f 8bbe 0e1a 74be
00000180: 6662 3ebe 6461 7bbe c8f5 2cbe 8fc8 343e
00000190: 980d 88be e302 6fbd 7764 353e a655 edbe
000001a0: e9bc 78bd f4e0 0f3e 2b38 bbbe 28e6 59bd
000001b0: 1aa0 2bbd 0fe6 07be 4584 203c 95a3 0fbe
000001c0: 15a0 6fbe 05fc c3bd d04d 14be 2c1e 70be
000001d0: b343 d8bd c457 0abc de78 303d 72c9 ea3d
000001e0: 5835 133e 2a72 853e 4968 853e 04d7 043e
000001f0: d69e 3a3e 5c65 d23d 9b60 52b9 02ef 29be
00000200: 3883 a7bd 0f63 42bd e246 a3be ba6a 21be
00000210: ff46 8ebd bad2 3abe 2d2e 063d 3ab7 2cbe
00000220: 3eb3 81be 046b edbd 7027 96be 34c4 c1be
00000230: c701 57be 0d49 6a3e 7e69 8e3e 0bd2 873e
00000240: 6fab 95bd 03fd debd 107c efbb 1adc 2fbe
00000250: f00b 4dbe f7af 6dbd 9904 3dbe b91b 82be
00000260: b389 acbc 7ab2 17be 7c69 8b3e 2bb1 7ebd
00000270: d86a 2fbe 48cc af3e 2539 63bd ebf7 22be
00000280: b0ca 883e 9fdf a8bd ea8e 5abd ebdb 913d
00000290: bc1c 023e 8ec3 483d b0f4 263e 0b27 503e
000002a0: 4fa7 36bd ac1f f53d 6d8c 223e 9d06 893d
000002b0: 4983 5a3d 0cff 413c a687 f3bb 10b6 fbbc
000002c0: ff4f a0bd c7a8 4bbe 5531 1bbe 741f 41be
000002d0: 6924 20be ea5c 74bd a049 66be aa87 043e
000002e0: 6af6 583e ace7 653d 3fff 193e da36 7c3e
000002f0: e310 5a3d 1fc4 c5bd f53e 19be 1914 c5bc
00000300: 3f85 fdbd 7b82 47be e8a6 b9bd 711f aabd
00000310: 7edd ffbd 0b9d 1e3c dd7e 8fbc 95c7 1ebd
00000320: 8ba5 1abe bfea 883e d3a2 913e 36df 493e
00000330: a80c 473b 50ae 1f3d b280 febd 3798 0d3e
00000340: c4db 6f3e 0697 edbb 0be8 8c3e 6ad2 b73c
00000350: dbe4 abbe 6ed6 203e 2f7c 65be a18e 92be
00000360: 993a 0dbe 2ae3 b6bd c062 8d3d 76dc 4ebe
00000370: ab62 10be 4675 8abd 62e8 95be 8ed0 92bd
00000380: 5e35 75bd 0d65 e83d 39b7 583e 6548 2b3e
00000390: c2be 01bc fc0b 243c 4e61 563d 8c5d bebe
000003a0: 00ef 68be d643 1dbe 9e25 8abd 5f1b 0ebe
000003b0: 092b c7bd 13db f3bc eebe 09be 0ebc fbbd
000003c0: f4c5 a93c 2050 d0bd 620e 88bd 9ed2 fcbd
000003d0: 75f5 a8be cba4 383c 211c 3dbe 63c5 91be
000003e0: a6c0 823b a725 9ebd 1305 01be cada 823d
000003f0: 6b80 e9bd f2a1 fbbd 74af 083d 9858 1dbe
