model/AE/encoder_fashion_mnist_32.pth (torch, 482197 bytes, 10 tensors)

conv1.weight f4 [32, 1, 3, 3]
-0.29224432 0.14192636 -0.10686413 -0.100564316 -0.26476097 -0.058456037 0.20242259 -0.068818666
0.058171924 -0.19964093 -0.1695041 0.27506495 0.02883723 -0.033039723 0.2545923 0.007802324
-0.034542657 0.014324188 0.2286943 -0.013157116 -0.27660152 -0.243225 -0.06136301 0.30988723
-0.024736267 0.030919712 -0.11158711 -0.014116161 0.35890105 0.019202419 -0.09774188 -0.3067265
-0.097649045 0.17469095 -0.029712081 0.14586163 0.2694502 0.28515306 0.19912294 0.1217154
0.08446931 -0.20171177 0.29701862 0.040668383 -0.3302203 0.18121266 0.025759326 -0.07481353
-0.20468517 -0.08596415 0.3411379 -0.028487872 0.35073835 -0.2834854 0.09613114 0.27668127
-0.15888178 -0.092998944 0.12710029 -0.29179615 0.008225777 0.30267546 -0.30931976 0.041729413
-0.105156966 0.13421598 0.06867952 0.06899651 0.29591677 0.21305096 0.3510445 0.26353458
0.091243364 -0.030125635 -0.40995845 0.023590649 0.027291704 -0.13341898 0.14941967 0.13769348
-0.040333077 0.21995871 -0.2986274 0.024839725 0.13171239 -0.082175046 -0.33012447 0.25405625
0.09915635 -0.041520968 -0.32316655 -0.11016195 -0.12058172 -0.17390077 -0.011966205 0.016115889
0.2956211 0.21836631 0.22183435 0.05342309 0.23905477 0.069643855 0.15014228 0.1930815
0.23249474 0.24090041 0.113191485 0.08931559 0.09318812 -0.029409239 -0.29468358 -0.109507255
0.33682695 0.016616685 0.1555148 0.038752597 0.11127406 -0.06637561 0.011313529 0.23247963
0.14877953 0.48774868 0.08365639 0.004595561 -0.14188555 -0.21063451 0.0644817 0.09240875
-0.03306133 -0.1572459 -0.3197739 0.026892934 0.012210153 0.18107413 0.11250437 -0.17948426
0.013614259 0.050831422 -0.19652237 0.18720756 0.24712141 0.10026165 -0.031388003 0.16382052
-0.08233303 -0.1817202 0.39713362 -0.16914834 -0.4795706 0.021284156 0.059044402 -0.18575679
0.049100142 -0.12885042 -0.028199574 0.019656358 -0.24156648 0.29211128 0.005457353 -0.32754913
-0.004467964 0.24671596 0.18987629 -0.26602674 0.33687675 -0.045008644 0.2969879 0.14756964
-0.1652093 -0.25499764 -0.26308557 0.09824884 -0.13487226 -0.060037695 0.2809581 0.065290965
-0.07033822 -0.16505393 -0.062130485 0.21478032 0.07264362 0.27968097 -0.13896023 0.029034717
-0.32860455 -0.037302878 -0.075071365 -0.43660587 -0.17467143 -0.028142672 -0.2810911 -0.39584818
-0.1344254 -0.13954706 -0.26134217 -0.006121713 -0.2159727 0.026454883 -0.038096733 -0.31920788
-0.22509035 0.1848028 0.0549946 0.3277617 -0.08466179 0.020352092 0.10794456 0.33483112
-0.36861628 0.23200157 0.056740146 0.030949323 -0.2998867 -0.18492381 0.05144891 0.10748033
0.17925596 0.2124752 -0.35801968 -0.09831289 0.08503127 0.258228 -0.25998923 -0.0035465278
0.030355211 0.0047678426 0.1844413 0.260569 -0.09807388 0.32419896 -0.25360748 -0.0030200721
-0.019001957 -0.21780291 -0.0315911 0.12385861 -0.123911165 0.07916273 0.26340798 0.1155338
-0.1523283 -0.24352236 -0.2120914 -0.22256887 -0.26250002 0.117481366 -0.10120644 -0.10779883
-0.24492666 -0.30481312 -0.29111493 -0.10913848 -0.04722925 0.38229257 0.19941486 0.21229926
00000000: 0ca1 95be 2555 113e 95db dabd aaf4 cdbd
00000010: c08e 87be 996f 6fbd de47 4f3e cdf0 8cbd
00000020: af45 6e3d ac6e 4cbe 7c92 2dbe 50d5 8c3e
00000030: 0e3c ec3c a954 07bd ec59 823e a3aa ff3b
00000040: 9a7c 0dbd 00b0 6a3c d72e 6a3e f290 57bc
00000050: b79e 8dbe f90f 79be c857 7bbd 8aa9 9e3e
00000060: b6a3 cabc 564b fd3c c887 e4bd 7847 67bc
00000070: e1c1 b73e 644e 9d3c e52c c8bd 410b 9dbe
00000080: 39fc c7bd 2fe2 323e c066 f3bc c05c 153e
00000090: 60f5 893e 95ff 913e e2e6 4b3e ec45 f93d
000000a0: 3ffe ac3d 888d 4ebe d312 983e e493 263d
000000b0: a312 a9be d08f 393e 3905 d33c d637 99bd
000000c0: fd98 51be f90d b0bd a0a9 ae3e 665f e9bc
000000d0: fa93 b33e 0025 91be 67e0 c43d 2ba9 8d3e
000000e0: e8b1 22be 3b76 bebd 9426 023e 4e66 95be
000000f0: 69c5 063c 47f8 9a3e 295f 9ebe 76ec 2a3d
00000100: 895c d7bd ea6f 093e d9a7 8c3d 0b4e 8d3d
00000110: 6782 973e 082a 5a3e 1bbc b33e 01ee 863e
00000120: cddd ba3d 09ca f6bc 13e6 d1be 2d41 c13c
00000130: da92 df3c fc9e 08be 7801 193e 85ff 0c3e
00000140: 4c34 25bd db3c 613e b1e5 98be ae7c cb3c
00000150: 9ddf 063e 644b a8bd 1306 a9be a913 823e
00000160: 7c12 cb3d e411 2abd 1676 a5be 979c e1bd
00000170: 8cf3 f6bd 0b13 32be e70d 44bc 7805 843c
00000180: a65b 973e 6b9b 5f3e 8b28 633e 2cd2 5a3d
00000190: c6ca 743e 70a1 8e3d e6be 193e 28b7 453e
000001a0: 1a13 6e3e 99ae 763e f0d0 e73d 18eb b63d
000001b0: 6ad9 be3d a5eb f0bc c4e0 96be 5745 e0bd
000001c0: 9574 ac3e b71f 883c 463f 1f3e 0bbb 1e3d
000001d0: a8e3 e33d f0ef 87bd 615c 393c 240f 6e3e
000001e0: a959 183e 32ba f93e 0b54 ab3d 5c96 963b
000001f0: 724a 11be 93b0 57be fb0e 843d cc40 bd3d
00000200: 516b 07bd 1205 21be 68b9 a3be 924e dc3c
00000210: 180d 483c 7f6b 393e b168 e63d b9ca 37be
00000220: 570e 5f3c 9c34 503d 293d 49be 57b3 3f3e
00000230: 650d 7d3e fb55 cd3d b590 00bd 91c0 273e
00000240: 389e a8bd dc14 3abe 1955 cb3e 3935 2dbe
00000250: 478a f5be 1c5c ae3c 8bd8 713d 0737 3ebe
00000260: 3b1d 493d 5df1 03be cb02 e7bc 5f06 a13c
00000270: 345d 77be 9c8f 953e 98d3 b23b 85b4 a7be
00000280: 0068 92bb 1ca3 7c3e ee6e 423e a834 88be
00000290: 1c7b ac3e fc5a 38bd cc0e 983e 7f1c 173e
000002a0: a02c 29be 0d8f 82be 27b3 86be b036 c93d
000002b0: f41b 0abe 16ea 75bd bdd9 8f3e 45b7 853d
000002c0: 7c0d 90bd e603 29be 897c 7ebd 5fef 5b3e
000002d0: 2ec6 943d 5832 8f3e 974b 0ebe 37da ed3c
000002e0: db3e a8be e7ca 18bd 04bf 99bd ce8a dfbe
000002f0: 11dd 32be 768b e6bc 2ceb 8fbe 9dac cabe
00000300: d0a6 09be 6de5 0ebe a4ce 85be a798 c8bb
00000310: f327 5dbe e9b7 d83c 520b 1cbd 376f a3be
00000320: 167e 66be f23c 3d3e 0542 613d 62d0 a73e
00000330: 2963 adbd 6eb9 a63c 0a12 dd3d fc6e ab3e
00000340: 46bb bcbe d291 6d3e 5b68 683d 6f89 fd3c
00000350: c08a 99be ab5c 3dbe 18bc 523d a61e dc3d
00000360: e08e 373e 1993 593e 5b4e b7be 4558 c9bd
00000370: e024 ae3d 7636 843e 4f1d 85be dd6c 68bb
00000380: 7eab f83c 903b 9c3b 2ede 3c3e 4d69 853e
00000390: f5da c8bd 68fd a53e d7d8 81be 67ec 45bb
000003a0: fea9 9bbc ba07 5fbe ab65 01bd 95a9 fd3d
000003b0: 23c5 fdbd 1220 a23d 69dd 863e fc9c ec3d
000003c0: f3fb 1bbe ed5d 79be 7d2e 59be 18e9 63be
000003d0: 6766 86be 129a f03d 5245 cfbd a2c5 dcbd
000003e0: 0ece 7abe 7710 9cbe 040d 95be ff83 dfbd
000003f0: 7573 41bd dabb c33e 6933 4c3e fa64 593e

conv1.bias f4 [32]
0.15399472 0.084783465 -0.20037155 0.16079395 0.0025035578 -0.1786908 0.23470724 0.25541443
-0.06148402 0.084476106 0.24791527 -0.047382876 0.12537031 -0.0789604 0.22916538 -0.19787002
0.1773971 0.2043498 -0.100671545 0.032053486 -0.08812887 -0.17209956 0.042171296 -0.2897572
-0.0665692 -0.317111 -0.09112641 0.08218438 -0.045983296 -0.3086023 0.076166786 -0.20906757
00000000: cbb0 1d3e f4a2 ad3d 332e 4dbe 2ba7 243e
00000010: bb12 243b b9fa 36be 1857 703e aec5 823e
00000020: abd6 7bbd cf01 ad3d 80dd 7d3e 8c14 42bd
00000030: 1361 003e fdb5 a1bd 54aa 6a3e 709e 4abe
00000040: 96a7 353e 1341 513e e22c cebd 844a 033d
00000050: e97c b4bd de3a 30be cfbb 2c3d 0e5b 94be
00000060: 6f55 88bd 5f5c a2be 7ca0 babd 4950 a83d
00000070: fb58 3cbd 1f01 9ebe 55fd 9b3d cf15 56be

gn1.weight f4 [32]
0.9911513 1.0122659 0.97000915 0.939578 0.90788627 0.9727707 1.011352 0.98462623
1.0629874 0.99587643 0.98473316 0.99405193 0.96423775 0.94124955 0.83919543 0.9551773
1.0657606 0.9899042 0.9802975 0.95874757 1.0164429 1.2022735 0.9743931 0.8048095
0.9381849 0.9865619 0.9346652 1.0392741 1.0351732 0.95913136 1.0525542 1.0169064
00000000: 17bc 7d3f ee91 813f 8552 783f 2f88 703f
00000010: 3c6b 683f 8007 793f fb73 813f 7710 7c3f
00000020: f90f 883f c2f1 7e3f 7917 7c3f 307a 7e3f
00000030: 49d8 763f bbf5 703f 83d5 563f 8086 743f
00000040: d86a 883f 5d6a 7d3f c7f4 7a3f 7b70 753f
00000050: cd1a 823f 19e4 993f d471 793f ff07 4e3f
00000060: e32c 703f 528f 7c3f 3846 6f3f ef06 853f
00000070: 8e80 843f a289 753f 19ba 863f fd29 823f

gn1.bias f4 [32]
-0.041904833 -0.5547054 -0.045387104 -0.13651648 -0.31441712 -0.0927501 0.08770926 -0.10184699
-0.00043724998 0.007397606 0.011833321 -0.090951845 -0.274211 -0.53012884 0.06326141 -0.3802057
0.017350102 -0.04409255 0.033130635 -0.18545997 0.29510498 0.07699381 -0.17769499 0.06378901
-0.18227765 -0.088258095 0.15264606 0.029100228 -0.034464546 -0.42890936 0.041173432 0.01696002
00000000: 67a4 2bbd 2c01 0ebf d4e7 39bd faca 0bbe
00000010: 48fb a0be c4f3 bdbd eaa0 b33d 2895 d0bd
00000020: b33e e5b9 9e67 f23b 8ce0 413c f644 babd
00000030: 6265 8cbe 86b6 07bf 338f 813d 52aa c2be
00000040: cd21 8e3c 649a 34bd fdb3 073d 38e9 3dbe
00000050: 0018 973e eeae 9d3d adf5 35be d0a3 823d
00000060: fea6 3abe a9c0 b4bd 404f 1c3e 9a63 ee3c
00000070: b22a 0dbd 029a dbbe 79a5 283d bdef 8a3c

conv2.weight f4 [64, 32, 3, 3]
0.08503402 -0.0033024102 -0.049391776 -0.02012969 -0.08336812 -0.07443781 -0.048213854 -0.037630375
-0.0769669 0.032552786 0.019199647 0.016585913 0.03835552 -0.03939312 -0.035823 0.020699074
-0.06892611 -0.012076018 0.047433782 0.028927933 -0.0041182926 -0.042082068 -0.020358808 -0.03711933
-0.050821364 -0.054519147 -0.041997068 -0.067742206 -0.0068120994 -0.013016837 -0.08982922 0.0015437601
-0.010432719 -0.011764668 0.004541959 -0.051657148 0.039813478 0.016270576 -0.080004916 0.04944838
-0.038084954 0.038598143 0.011121524 0.06772646 -0.08697154 0.03004363 0.00086635194 -0.00480453
0.023146743 0.061614886 0.058469687 0.06740872 0.0042897663 -0.034646437 -0.040611718 -0.049564015
-0.030599073 -0.033945423 -0.06261055 -0.0010526704 0.049031388 0.015363616 0.0017766011 -0.014433642
-0.037108075 -0.057616714 -0.055836204 -0.07760221 -0.0567344 -0.021425894 -0.04041344 -0.055869393
0.08002904 -0.038359035 -0.0059570717 0.15031372 0.0042476486 -0.053353887 -0.022805147 -0.115993276
-0.053551503 -0.0076275426 -0.03355689 -0.021597171 -0.018837923 -0.014577896 0.0088386405 0.019949151
0.015639907 -0.07137899 -3.161505e-05 0.034801576 0.018099587 -0.04297128 0.023028048 -0.05030538
0.057399802 -0.008891628 0.02394317 -0.046263967 -0.04938446 -0.044143666 0.009209044 -0.04862596
-0.08691501 0.014131277 -0.072748385 -0.08321331 -4.5148987e-05 -0.091779985 -0.017437935 -0.007265456
-0.026815021 -0.003591837 -0.031859074 0.0073133525 -0.044494227 0.026539415 -0.010610563 0.068040356
-0.033331115 -0.027544275 0.10907289 0.060496047 0.025114493 0.09552308 0.0059489114 0.019600647
-0.052075222 0.021414194 -0.018579707 -0.05504652 0.013568692 0.026167 -0.007251214 0.027453765
-0.031098016 -0.016299127 0.044436704 -0.060560968 -0.005572024 0.04452727 -0.08664111 -0.08961355
0.09926363 -0.02277063 -0.001196425 -0.057685222 -0.021761023 -0.09672142 0.023545094 -0.0672682
-0.10885657 0.04337289 0.03664974 0.009933369 0.015721496 0.013041218 0.028549332 0.002240671
-0.050273333 -0.050353505 -0.035339534 -0.00066270994 -0.088075496 -0.05636814 -0.0038136025 -0.028449701
0.0024881621 0.007264184 -0.06434922 -0.032792736 -0.03512212 -0.0053135133 -0.057335876 -0.015160767
0.030191682 0.10157492 0.02522342 -0.008424002 0.0140802665 -0.035210792 -0.09460156 -0.07360083
-0.15738286 -0.0923674 -0.05675787 -0.037912406 -0.07140542 0.06976271 -0.0066559645 -0.024591643
0.018256355 -0.08252001 -0.056701 -0.11282271 -0.15983608 -0.06986878 0.032871142 0.050256126
-0.029851442 -0.0609489 0.015684208 -0.01107018 0.0042573046 -0.027365115 -0.0628135 0.0300577
-0.004107521 -0.04318625 -0.024051169 -0.021636784 -0.05854634 -0.003881227 0.028310267 -0.016151015
-0.05471065 -0.059071127 0.019801846 -0.024730397 -0.022020845 0.04294266 -0.021433908 -0.040168785
-0.058113858 0.014351833 0.07204022 0.00051579275 0.01383258 -0.054616917 0.04518608 0.04763529
0.021227887 0.008409442 0.057526473 -0.04191101 -0.024169533 -0.021383053 -0.037485093 0.00022550224
0.01040871 -0.036987998 0.02105087 0.021614254 -0.06944301 -0.024756735 -0.00285088 -0.1748558
-0.12992743 -0.114948 -0.111531034 -0.10237019 -0.027520983 -0.054448448 -0.102124915 -0.00026173246
00000000: 5126 ae3d 406d 58bb 084f 4abd 05e7 a4bc
00000010: e8bc aabd da72 98bd e47b 45bd 4f22 1abd
00000020: d2a0 9dbd 1256 053d 9448 9d3c 2edf 873c
00000030: ae1a 1d3d ae5a 21bd 23bb 12bd 1b91 a93c
00000040: 2229 8dbd 7eda 45bc ed49 423d 46fa ec3c
00000050: bef2 86bb 3f5e 2cbd 84c7 a6bc 700a 18bd
00000060: 102a 50bd 784f 5fbd 1e05 2cbd 6dbc 8abd
00000070: 0838 dfbb 9244 55bc 62f8 b7bd fe57 ca3a
00000080: ffed 2abc 98c0 40bc b7d4 943b 7296 53bd
00000090: 7513 233d df49 853c 9ed9 a3bd 628a 4a3d
000000a0: f8fe 1bbd 1619 1e3d 0d37 363c 2cb4 8a3d
000000b0: 221e b2bd 0f1e f63c e51b 633a 526f 9dbb
000000c0: 3d9e bd3c e45f 7c3d e97d 6f3d 950d 8a3d
000000d0: 2b91 8c3b 6ce9 0dbd 7958 26bd a303 4bbd
000000e0: e8aa fabc 5b0a 0bbd f639 80bd c2f9 89ba
000000f0: 23d5 483d adb7 7b3c d7dc e83a 157b 6cbc
00000100: a3fe 17bd 81ff 6bbd 81b4 64bd e8ed 9ebd
00000110: 5562 68bd 5b85 afbc 9088 25bd 4ed7 64bd
00000120: 44e6 a33d 5d1e 1dbd 8a33 c3bb d7eb 193e
00000130: dc2f 8b3b 9b89 5abd dcd1 babc e28d edbd
00000140: d258 5bbd 77f0 f9bb f372 09bd 8dec b0bc
00000150: fd51 9abc 21d8 6ebc f2cf 103c 676c a33c
00000160: 431f 803c 262f 92bd 679a 04b8 198c 0e3d
00000170: 9645 943c a702 30bd 51a5 bc3c 040d 4ebd
00000180: 0e1c 6b3d 31ae 11bc 7824 c43c 497f 3dbd
00000190: 5c47 4abd fdcf 34bd 88e1 163c 042c 47bd
000001a0: 7f00 b2bd df86 673c 1bfd 94bd bd6b aabd
000001b0: 5b5e 3db8 25f7 bbbd 00da 8ebc 1013 eebb
000001c0: 2dab dbbc 0665 6bbb a97e 02bd d9a4 ef3b
000001d0: 943f 36bd 3069 d93c edd7 2dbc be58 8b3d
000001e0: 3586 08bd 88a4 e1bc 9b61 df3d b4ca 773d
000001f0: e9bc cd3c 9ba1 c33d 16ef c23b 8991 a03c
00000200: d44c 55bd d26c af3c 7834 98bc 7678 61bd
00000210: 384f 5e3c 2d5c d63c 979b edbb b8e6 e03c
00000220: 44c1 febc bf85 85bc 4303 363d c70e 78bd
00000230: 8695 b6bb 3a62 363d e570 b1bd 4f87 b7bd
00000240: bb4a cb3d 7989 babc 5cd1 9cba 5747 6cbd
00000250: 2c44 b2bc e115 c6bd a4e1 c03c e9c3 89bd
00000260: 32f0 debd c6a7 313d 0a1e 163d 92bf 223c
00000270: 5eca 803c d5aa 553c 4ae0 e93c 39d8 123b
00000280: 69eb 4dbd 7a3f 4ebd 30c0 10bd b6b9 2dba
00000290: ed60 b4bd 47e2 66bd a2ed 79bb 590f e9bc
000002a0: 6f10 233b 6408 ee3b 86c9 83bd ad51 06bd
000002b0: 36dc 0fbd fb1c aebb 06d9 6abd de64 78bc
000002c0: 8c54 f73c 8306 d03d 58a1 ce3c d304 0abc
000002d0: ebb0 663c 3139 10bd 76be c1bd 08bc 96bd
000002e0: f928 21be 1f2b bdbd f17a 68bd 0a4a 1bbd
000002f0: 013d 92bd c0df 8e3d 471a dabb 6a74 c9bc
00000300: 5a8e 953c 4000 a9bd 4f3f 68bd 980f e7bd
00000310: 12ac 23be 5d17 8fbd e4a3 063d 5ed9 4d3d
00000320: 038b f4bc 8ea5 79bd 2b7c 803c b35f 35bc
00000330: dc80 8b3b ce2c e0bc 5da4 80bd 913b f63c
00000340: 6298 86bb 11e4 30bd f506 c5bc a03f b1bc
00000350: 49ce 6fbd 2f5c 7ebb efea e73c 224f 84bc
00000360: 4618 60bd 91f4 71bd 7b37 a23c 6797 cabc
00000370: 0f65 b4bc a5e4 2f3d 2a96 afbc 0688 24bd
00000380: cc08 6ebd f323 6b3c d389 933d 4436 073a
00000390: 0ca2 623c fdb5 5fbd 0a15 393d 391d 433d
000003a0: 1be6 ad3c c2c7 093c e1a0 6b3d e1aa 2bbd
000003b0: 2fff c5bc 832b afbc f889 19bd cc74 6c39
000003c0: 4b89 2a3c ba80 17bd e072 ac3c 6010 b13c
000003d0: 2338 8ebd a3ce cabc d4d5 3abb 660d 33be
000003e0: b20b 05be db69 ebbd 626a e4bd 76a7 d1bd
000003f0: af73 e1bc 5605 5fbd de26 d1bd 2339 89b9

conv2.bias f4 [64]
-0.061318524 -0.04002272 -0.032859337 0.059701297 -0.02403228 -0.0026963423 -0.03289344 -0.005952371
0.039465077 -0.030997312 0.06622032 -0.025465012 -0.051332235 0.00363259 0.034759123 0.005070262
0.07719945 -0.06543024 0.021333246 0.04968702 0.06979524 -0.04838365 -0.016869541 0.055031464
0.033906598 0.06632336 0.05151874 0.047527816 0.16445468 -0.075354315 -0.06308915 0.137177
-0.053257197 -0.044462815 0.018466901 0.03986317 0.06425516 -0.039867066 0.09939277 -0.050302014
-0.091029644 0.0046296227 -0.102416486 0.013856316 -0.029454194 -0.054426663 -0.1187656 0.02014228
0.092729755 -0.07238463 -0.020003486 -0.004073059 0.010475712 0.06449612 -0.19677724 0.15349168
-0.10801842 0.117437035 0.13171735 -0.019216958 0.11612566 -0.02820409 0.004065836 -0.0019490215
00000000: 2229 7bbd ddee 23bd 8397 06bd 5989 743d
00000010: 58df c4bc 1eb5 30bb 46bb 06bd 1b0c c3bb
00000020: 22a6 213d 13ee fdbc 859e 873d 009c d0bc
00000030: c041 52bd bf10 6e3b 955f 0e3d 7124 a63b
00000040: bf1a 9e3d 4a00 86bd 0fc3 ae3c 9e84 4b3d
00000050: cff0 8e3d ef2d 46bd fe31 8abc ac68 613d
00000060: a5e1 0a3d 8bd4 873d 5005 533d 87ac 423d
00000070: cf66 283e 5d53 9abd e234 81bd 2178 0c3e
00000080: 3824 5abd a41e 36bd e647 973c 9047 233d
00000090: 3698 833d a64b 23bd 708e cb3d 7c09 4ebd
000000a0: c06d babd 17b4 973b bcbf d1bd 9a05 633c
000000b0: ec49 f1bc 7eee 5ebd 613b f3bd 6c01 a53c
000000c0: 19e9 bd3d 653e 94bd 5ade a3bc 4c77 85bb
000000d0: 52a2 2b3c 8b16 843d f97f 49be ec2c 1d3e
000000e0: c338 ddbd d482 f03d eae0 063e e26c 9dbc
000000f0: 4ad3 ed3d 440c e7bc b43a 853b 4f76 ffba

gn2.weight f4 [64]
1.0001557 1.0055827 1.0294175 0.69122726 0.8507605 0.8262044 0.933428 0.91916436
0.968302 1.0069785 0.89759594 0.98524463 0.9511649 1.0639745 0.97184676 0.9409443
0.92203844 0.98455185 0.99291193 0.7774649 0.9246524 1.1830515 0.9370527 0.81642675
0.8463785 0.9259689 1.1645864 0.98496014 0.9230749 1.4112399 1.1142459 1.0413096
1.0083209 1.0681539 0.79231894 0.8776906 1.0020463 1.0798318 0.9411018 1.1427512
1.0887442 1.0121212 1.1308017 0.9980634 0.96564907 1.0094185 0.8928231 0.858095
0.9157649 1.0265677 0.94194025 0.8970531 0.98227334 0.9874941 0.91290504 1.0609212
1.0464393 0.99158525 1.015903 1.3790671 1.2864959 1.0045882 1.0024323 0.968812
00000000: 1a05 803f efb6 803f f4c3 833f 45f4 303f
00000010: 71cb 593f 2282 533f 23f5 6e3f 5b4e 6b3f
00000020: a4e2 773f ace4 803f d9c8 653f fe38 7c3f
00000030: 8b7f 733f 5130 883f f3ca 783f bae1 703f
00000040: b60a 6c3f 970b 7c3f 7a2f 7e3f f107 473f
00000050: 05b6 6c3f 3b6e 973f b0e2 6f3f 5801 513f
00000060: 43ac 583f 4c0c 6d3f 2b11 953f 5926 7c3f
00000070: a34e 6c3f 82a3 b43f 9c9f 8e3f a249 853f
00000080: a910 813f 44b9 883f 6ad5 4a3f 55b0 603f
00000090: 0e43 803f ee37 8a3f 0cec 703f ac45 923f
000000a0: f85b 8b3f 308d 813f 1cbe 903f 1581 7f3f
000000b0: c734 773f a034 813f 0e90 643f 1dac 5b3f
000000c0: 926f 6a3f 9266 833f ff22 713f 46a5 653f
000000d0: 4476 7b3f 6acc 7c3f 25b4 693f 44cc 873f
000000e0: b9f1 853f 88d8 7d3f 1c09 823f 4585 b03f
000000f0: e6ab a43f 5996 803f b44f 803f 1004 783f

gn2.bias f4 [64]
-0.1878288 -0.019278767 -0.14043194 -0.117648385 -0.28060794 -0.13178498 -0.10040166 -0.086328864
-0.0062720976 -0.18059796 -0.21572115 -0.13616791 -0.34456077 -0.03522049 -0.042752277 -0.032865554
-0.07563529 -0.14723559 -0.11862491 -0.1012598 -0.066133074 -0.017066313 -0.15043779 -0.24812485
-0.111476436 -0.09503646 -0.07076168 -0.17666115 -0.06822648 -0.28709182 -0.20310378 -0.10809769
-0.2618814 -0.1560857 -0.13953204 -0.21604347 -0.039443884 -0.016298136 -0.038770385 -0.15715365
-0.024420429 -0.05437009 0.0043238006 -0.03127389 -0.08085474 -0.01294274 -0.059752688 -0.056097806
-0.022910587 -0.3093323 -0.13427097 -0.24549523 -0.04492685 -0.05047661 -0.49496186 -0.2744945
-0.10779752 -0.12972954 0.0025625308 -0.036052838 -0.14644492 -0.13075417 -0.05486529 -0.04636522
00000000: 3156 40be 81ee 9dbc 64cd 0fbe a3f1 f0bd
00000010: d8ab 8fbe a4f2 06be 639f cdbd 30cd b0bd
00000020: 2b86 cdbb acee 38be 01e6 5cbe 9a6f 0bbe
00000030: 456a b0be 5c43 10bd 031d 2fbd 089e 06bd
00000040: ade6 9abd edc4 16be 9ef1 f2bd 4c61 cfbd
00000050: c770 87bd a7ce 8bbc 5d0c 1abe 7114 7ebe
00000060: c24d e4bd 7aa2 c2bd 80eb 90bd a9e6 34be
00000070: 53ba 8bbd b3fd 92be 70fa 4fbe 5262 ddbd
00000080: 5215 86be eed4 1fbe 7de1 0ebe 803a 5dbe
00000090: e98f 21bd ab83 85bc b2cd 1ebd e3ec 20be
000000a0: 5a0d c8bc 2cb3 5ebd abae 8d3b 0d19 00bd
000000b0: 2c97 a5bd c90d 54bc 3cbf 74bd d0c6 65bd
000000c0: fcae bbbc ce60 9ebe 547e 09be 1a63 7bbe
000000d0: 3705 38bd 90c0 4ebd a46b fdbe 8b8a 8cbe
000000e0: f2c4 dcbd d2d7 04be 22f0 273b 24ac 13bd
000000f0: a8f5 15be 6ce4 05be 6dba 60bd 75e9 3dbd

linear.weight f4 [32, 3136]
-0.073827654 -0.033815656 -0.04636071 -0.020374248 0.0096208565 0.016433628 -0.13272087 -0.08418788
0.0013044755 -0.07215391 0.03776249 -0.064506926 -0.035370745 -0.036100518 -0.09146857 -0.051439386
-0.019878697 0.053995818 0.054385412 -0.00997372 -0.0030495406 -0.11761246 0.045098595 -0.03132726
-0.036290787 -0.018824559 -0.0804759 -0.10610563 -0.0016858645 0.04967252 0.014274755 0.0133020235
0.0015159189 -0.0096870735 -0.016670972 0.042633157 0.022298798 0.0063500856 -0.010803357 0.0062413807
-0.013729117 0.071146995 -0.03622942 -0.06391621 0.037048012 -0.043100733 0.03681685 -0.017322697
-0.0026371463 -0.05757383 -0.079912074 -0.02182964 -0.05728352 -0.020432467 0.03072232 -0.031748522
-0.11451866 -0.0007391179 -0.060044233 0.032005332 -0.029874966 -0.043530423 -0.0011204852 -0.099768616
0.046407674 0.014204608 0.060727578 -0.017015696 -0.053486772 -0.113482915 -0.15729038 -0.0014813176
0.024357047 0.007016466 -0.04546516 0.0051096026 -0.030752113 0.06235955 -0.0045078164 0.0072112833
-0.016136304 -0.00025019518 -0.022548402 0.019687617 0.040354572 -0.013519084 0.08567295 0.010733865
0.01562565 -0.047503024 0.08580868 -0.045647986 0.0035414922 0.071684346 0.07068372 0.045479957
-0.03995245 0.03423456 -0.03615852 -0.048194762 0.0039808964 -0.027256202 0.055388495 -0.052985854
-0.0027208913 -0.038977806 -0.063928984 0.074288666 -0.06656662 -0.05428376 0.07976238 -0.031182624
-0.04397925 0.0008453321 0.014263919 -0.06246573 -0.074337915 0.028803766 0.011404573 -0.011280428
-0.015903072 0.022460928 0.03057509 0.022644829 0.04557414 0.007135856 -0.0056540435 -0.04269296
-0.052424636 0.05921655 -0.0013304764 0.087188184 -0.013321069 -0.032168783 -0.0268505 -0.07497547
-0.045431215 -0.030049246 0.024694402 -0.021220002 -0.05072143 -0.043811586 -0.09621283 -0.05396122
-0.034983248 -0.048921578 -0.027586937 0.05447338 0.019526687 -0.08204112 0.07933117 -0.029578714
-0.039484445 -0.026025083 -0.086098045 -0.02432001 -0.10383825 0.042752378 -0.061326165 -0.0097826
0.010340072 0.015332859 -0.029782608 -0.035958108 -0.06356974 -0.0102405 0.027452301 -0.013409363
0.0073570046 -0.034016617 -0.0070228404 -0.04442412 -0.05322908 -0.019705767 -0.0017678966 0.04137098
-0.0064013507 0.0562821 0.10353977 0.067170516 -0.020066345 0.020724088 -0.07200453 -0.10446396
-0.023282994 -0.006590436 0.034193654 -0.017706174 0.024411174 -0.01493885 -0.061960224 0.046857707
-0.0027656206 0.012142828 0.011981466 0.0069813603 -0.013287513 -0.012494462 -0.06999966 0.001035802
-0.046484236 0.096355714 0.05924169 0.024288185 -0.05740701 -0.038840853 -0.031429105 -0.09011331
-0.073069654 -0.012827345 0.011798347 -0.0269202 0.026766969 -0.022441646 0.0024504575 -0.035108965
-0.07373123 0.087035775 -0.07804498 -0.018719288 0.0024674076 -0.040480513 -0.035584666 -0.022142986
0.024474261 0.003605303 0.017964153 0.005848097 -0.07383155 0.031408355 -0.01986812 0.01358699
-0.05829782 -0.020725468 -0.042278603 -0.032141462 0.012025823 -0.019508353 -0.009166521 0.0081949765
-0.015632993 -0.03169036 0.04972171 0.018401911 -0.0107785165 -0.003865845 -0.00545972 0.0033924025
0.01230203 0.0301331 -0.009152192 -0.012591829 0.048971523 -0.011232218 -0.027855895 -0.015170529
00000000: f432 97bd 4982 0abd bae4 3dbd e5e7 a6bc
00000010: cca0 1d3c d19f 863c fbe7 07be b26a acbd
00000020: effa aa3a 6ec5 93bd d7ac 1a3d 351c 84bd
00000030: eae0 10bd 23de 13bd e053 bbbd 1bb2 52bd
00000040: a6d8 a2bc b82a 5d3d 3dc3 5e3d d068 23bc
00000050: cdda 47bb cdde f0bd 4eb9 383d 0351 00bd
00000060: a6a5 14bd f635 9abc 8cd0 a4bd e94d d9bd
00000070: 3af8 dcba 6a75 4b3d a9e0 693c bbf0 593c
00000080: ccb1 c63a 88b6 1ebc 9091 88bc 1ba0 2e3d
00000090: f8ab b63c 6114 d03b 9000 31bc 7f84 cc3b
000000a0: 17f0 60bc 84b5 913d 4d65 14bd 80e6 82bd
000000b0: a8bf 173d 658a 30bd 44cd 163d 54e8 8dbc
000000c0: f9d3 2cbb 89d2 6bbd f1a8 a3bd 13d4 b2bc
000000d0: 20a2 6abd fd61 a7bc 60ad fb3c bd0a 02bd
000000e0: c288 eabd 5dc1 41ba f1f0 75bd 0618 033d
000000f0: 58bc f4bc f54c 32bd 3fdd 92ba 7d53 ccbd
00000100: f915 3e3d 72ba 683c 7bbd 783d 8064 8bbc
00000110: f214 5bbd bb69 e8bd bb10 21be c528 c2ba
00000120: 6e88 c73c 62ea e53b ad39 3abd 746e a73b
00000130: dbeb fbbc ba6c 7f3d 4eb6 93bb a14c ec3b
00000140: 4830 84bc a12c 83b9 6db7 b8bc ed47 a13c
00000150: d64a 253d 267f 5dbc 4d75 af3d 18dd 2f3c
00000160: 5d01 803c 8892 42bd 76bc af3d 62f9 3abd
00000170: 6118 683b 3ecf 923d a0c2 903d 3149 3a3d
00000180: 2ea5 23bd 8a39 0c3d f51a 14bd df67 45bd
00000190: 2e72 823b 6648 dfbc 0cdf 623d b207 59bd
000001a0: fb50 32bb 31a7 1fbd 33ed 82bd a824 983d
000001b0: 1454 88bd a658 5ebd 755a a33d b472 ffbc
000001c0: 9623 34bd 4799 5d3a 36b3 693c 11dc 7fbd
000001d0: 7a3e 98bd e0f5 eb3c 3fda 3a3c 8bd1 38bc
000001e0: 2947 82bc fbff b73c 9c78 fa3c a681 b93c
000001f0: f3ab 3a3d e6d3 e93b 8e45 b9bb d0de 2ebd
00000200: 37bb 56bd 0e8d 723d 6163 aeba b88f b23d
00000210: 9d40 5abc 6ac3 03bd 94f5 dbbc bd8c 99bd
00000220: 1516 3abd d629 f6bc ea4b ca3c 92d5 adbc
00000230: 46c1 4fbd c773 33bd 3b0b c5bd 7106 5dbd
00000240: 984a 0fbd fe61 48bd 00fe e1bc 7b1f 5f3d
00000250: 6ef6 9f3c 2d05 a8bd 6178 a23d 0f4f f2bc
00000260: 71ba 21bd 8e32 d5bc 2c54 b0bd c23a c7bc
00000270: 26a9 d4bd 1e1d 2f3d 2531 7bbd 3347 20bc
00000280: 6869 293c ac36 7b3c a8fa f3bc cf48 13bd
00000290: da30 82bd c5c7 27bc a6e3 e03c f2b2 5bbc
000002a0: 0713 f13b 0255 0bbd db1f e6bb 11f6 35bd
000002b0: bc06 5abd fd6d a1bc c4b8 e7ba 9e74 293d
000002c0: 6cc2 d1bb 0f88 663d a90c d43d b290 893d
000002d0: 2d62 a4bc 90c5 a93c 1c77 93bd 33f1 d5bd
000002e0: fabb bebc 96f4 d7bb a50e 0c3d 8a0c 91bc
000002f0: f1f9 c73c 14c2 74bc 01ca 7dbd deed 3f3d
00000300: 6a3f 35bb b6f2 463c e94d 443c e5c3 e43b
00000310: deb3 59bc 92b5 4cbc fb5b 8fbd bfc3 873a
00000320: 4166 3ebd 2556 c53d 6aa7 723d 04f8 c63c
00000330: 9d23 6bbd 9617 1fbd cebb 00bd 548d b8bd
00000340: 8ba5 95bd c929 52bc db4d 413c c087 dcbc
00000350: 6746 db3c 8bd7 b7bc db97 203b 6bce 0fbd
00000360: 6600 97bd d03f b23d 0cd6 9fbd 3159 99bc
00000370: 3bb4 213b e5ce 25bd 3ac1 11bd 3565 b5bc
00000380: 3f7e c83c f246 6c3b 8f29 933c 65a1 bf3b
00000390: ff34 97bd 0ca6 003d 78c2 a2bc f79b 5e3c
000003a0: b2c9 6ebd 75c8 a9bc 542c 2dbd c4a6 03bd
000003b0: f507 453c fbcf 9fbc 2d2f 16bc 3944 063c
000003c0: c310 80bc c0cd 01bd fea8 4b3d 9bbf 963c
000003d0: 6098 30bc 1e5a 7dbb 73e7 b2bb 1253 5e3b
000003e0: 748e 493c b1d9 f63c 13f3 15bc f54d 4ebc
000003f0: 5d96 483d 5607 38bc 0c32 e4bc cf8d 78bc

linear.bias f4 [32]
0.02769837 0.010256601 0.023379125 0.043558013 -0.034930795 0.053538125 0.01791747 0.04180042
-0.023726469 -0.0149697075 0.019731326 -0.0209159 0.0065135113 -0.0073332973 0.013793527 0.016824763
-0.032192376 -0.014967552 -0.024788728 0.005331187 0.026040798 -0.03558484 -0.009524736 0.002796937
0.039706822 -0.015472483 0.010777683 0.018345317 -0.033034116 0.0014633307 -0.013708812 -0.006106222
00000000: b1e7 e23c 4d0b 283c 9485 bf3c e369 323d
00000010: 9813 0fbd cb4a 5b3d a8c7 923c eb36 2b3d
00000020: 035e c2bc 8143 75bc 97a3 a13c d257 abbc
00000030: 4b6f d53b 284c f0bb 3ffe 613c 16d4 893c
00000040: 27dc 03bd 773a 75bc bb11 cbbc 3db1 ae3b
00000050: 8353 d53c 69c1 11bd a30d 1cbc d14c 373b
00000060: 9fa3 223d 4c80 7dbc e194 303c eb48 963c
00000070: c84e 07bd 3bcd bf3a ed9a 60bc b416 c8bb
